models/MLP_Regression_2024-07-30T14:08:12.793153.pth (torch, 15196 bytes, 6 tensors)

fc1.weight f4 [64, 43]
000000 f5 88 0f bd 65 05 67 3d 29 48 58 3b 86 0c 02 3e
       -0.03504272 0.05640163 0.0033001995 0.1270009
000010 3e ac a1 bd 0a 57 cd bd a1 f6 c0 bb 77 f2 d4 bd
       -0.07894181 -0.10026367 -0.0058887755 -0.10397809
000020 c3 ce c2 bc c2 a6 a3 3c 83 9e 24 3d 08 09 28 3e
       -0.023780232 0.019976977 0.04019023 0.16409695
000030 64 fb 64 3d 07 d6 93 bd 87 1b 8e 3c 9e 17 81 3e
       0.055903807 -0.07218557 0.01734711 0.2521333
000040 13 cc 26 3e de c4 91 bd e5 fc ca 3d 5a 28 46 bc
       0.16288786 -0.071176276 0.09911517 -0.0120945815
000050 65 b6 68 bd 55 84 fb bd 5c 32 7f 3d a1 01 7f 3e
       -0.05681457 -0.122811 0.062303886 0.24902965
000060 55 42 f8 3b a6 3a 07 ba 56 17 bc 3d a8 74 ef 3d
       0.007576267 -0.00051585806 0.091841385 0.11692172
000070 96 5f 77 3d f0 f6 e6 3d d8 a9 d3 3d 96 59 f9 bd
       0.060393892 0.11277568 0.103351295 -0.1217529
000080 e0 4b a3 bd 59 88 e0 bd eb 93 48 3e 5b 66 aa 3d
       -0.079734564 -0.10963506 0.19587676 0.08320304
000090 95 b5 2f 3e e6 ee ea 3d ec f9 92 3e 8a 94 f9 bc
       0.17159112 0.114713475 0.287063 -0.030466337
0000a0 ff 81 42 3e 39 ec 92 bd fc 47 b9 3e cf e0 2f be
       0.18994902 -0.07173962 0.36187732 -0.17175601
0000b0 17 e4 56 3d 2f 63 74 3d 31 04 06 3e 04 c5 1b be
       0.052463617 0.0596649 0.13087536 -0.15211874
0000c0 ce a7 73 be 01 72 fd bd 97 e2 6b bd 68 91 f8 bb
       -0.23794481 -0.1237526 -0.05758914 -0.007585693
0000d0 bd d8 9c bd bc ef 4f 3d 0f c7 1d 3d 03 eb f3 3c
       -0.07658527 0.050765738 0.038519915 0.029775148
0000e0 f2 b7 91 be 3a 87 12 be f5 5f cc 3d 6c b2 fd bd
       -0.28460652 -0.14309397 0.0997924 -0.12387547
0000f0 2a f0 e0 3d 99 47 16 3d f8 8e 37 3e a8 ae 5a bd
       0.10983308 0.036689375 0.17925632 -0.05338922
000100 97 b2 53 be 07 2a 8d bd 28 07 82 3d d9 05 38 bc
       -0.20673595 -0.06892782 0.06349021 -0.011231863
000110 c7 4e 8c 3d 27 79 51 3d 96 72 f0 bd 1b ea 90 be
       0.06850963 0.05114093 -0.117406055 -0.28303608
000120 97 88 02 bd 05 76 4f bc 7b 93 3f be a3 1f b7 3d
       -0.031868543 -0.012662415 -0.18708603 0.08941581
000130 a0 2e 4e 3e cb 7b c6 3d e2 34 25 bb a4 80 80 bd
       0.20134974 0.096915804 -0.0025208523 -0.06274536
000140 73 34 65 bd 5d 6c 50 be 4a 39 6d 3c ae 7d a3 be
       -0.055958223 -0.20353837 0.014478991 -0.31931823
000150 ab 5d f8 bc 9f f5 32 3e f2 48 61 be 11 1a 3e 3e
       -0.030318102 0.1747651 -0.22000483 0.18564631
000160 52 33 e5 bd 0d 65 d9 bd 37 af 44 be d4 9b 7a 3d
       -0.11191429 -0.10614977 -0.19207464 0.061183766
000170 c0 67 d6 bd 02 e8 7b bb 5a d9 79 bd b2 ea 91 3d
       -0.104690075 -0.0038437848 -0.0609983 0.07124843
000180 ca 22 c9 bc 97 32 0e bd c8 08 7f 3d 7e 24 4f 3e
       -0.024552722 -0.034716215 0.062264234 0.20228764
000190 ce e0 04 3d 40 f7 d1 3d 3e b9 41 be 02 be 9e bc
       0.032440953 0.10252237 -0.1891832 -0.019377712
0001a0 93 0f ba bd 81 d1 c3 bc 33 6c 47 3e 6d 33 ed 3d
       -0.09085002 -0.02390361 0.19474868 0.11582074
0001b0 1f 97 83 bd 5c e5 8f 3e 27 08 90 bd 87 3e 9e 3d
       -0.064253084 0.28104675 -0.07032805 0.0772677
0001c0 8a 50 22 be 42 b2 e6 bd e5 a2 14 be 74 90 44 bc
       -0.15851036 -0.11264469 -0.14515264 -0.011997331
0001d0 b1 a1 03 3e 26 64 ba 3d a8 8a 4d ba 57 90 7b be
       0.12854649 0.09101133 -0.0007840791 -0.2456678
0001e0 a0 35 4a 3c 60 f8 3e bb 16 48 ad 3d 65 56 4e 3d
       0.012341887 -0.0029139742 0.08461015 0.05037536
0001f0 a9 21 15 be 19 1f fe 3d a8 3f 8a be 67 a7 b1 bd
       -0.14563622 0.12408275 -0.2700169 -0.086745076
000200 e0 56 aa bd bd 7d 8d 3e c9 c2 e8 3e 56 31 e5 3e
       -0.08317351 0.27634993 0.4546111 0.44764203
000210 ca 56 87 3e c3 1c 58 bd d1 35 8e 3e 3d f1 ee 3e
       0.26433402 -0.052761804 0.27775434 0.46668425
000220 d8 71 e7 3b 56 1e 0c 3e 3a db 1b 3e be 0a 9f 3c
       0.007063132 0.13683447 0.15220347 0.019414302
000230 e2 11 5d bd e5 3b 39 bd 32 61 09 3e ac 2d a9 3e
       -0.053972133 -0.045223136 0.13415983 0.33042657
000240 50 6b f1 3d 56 e0 2c bd dd 5c 83 3e f9 4f 0a 3f
       0.11788046 -0.04220613 0.25656787 0.5402828
000250 4d f3 6a bd c0 77 45 bc f9 45 d3 bc 2a 73 9f 3c
       -0.057360936 -0.012052476 -0.025790202 0.019464094
000260 07 eb 96 bd 25 c5 a1 be af 2e ae 3e 43 84 fa 3e
       -0.07369047 -0.31595722 0.34019992 0.48929033
000270 f5 8f 01 3d be c2 6e be 73 03 8b 3e b1 ef f9 3e
       0.03163143 -0.23316476 0.2715107 0.48815683
000280 4d 04 0f bd c2 0c 7e be 50 8d 11 bd 2e cc 83 3e
       -0.03491621 -0.24809554 -0.035535157 0.25741714
000290 8c d1 19 bd 60 3d 7e 3e 15 a6 0f 3c 30 8c 1f 3c
       -0.037553355 0.248281 0.008767624 0.009738013
0002a0 45 f9 be 3d 84 e7 ab 3d 67 93 da 3d a9 48 e2 3d
       0.09324888 0.083937675 0.10672646 0.11049015
0002b0 80 87 d2 3c 22 0c 96 be e7 69 0c 3d 70 53 22 be
       0.025699377 -0.29306132 0.034280684 -0.15852141
0002c0 a3 44 c7 bd 28 32 2c be 22 b7 82 3c ed 12 2a be
       -0.09729888 -0.16816008 0.015956465 -0.16608782
0002d0 ad 07 b1 bd 3c 36 43 3e bf f8 58 3e 7c ac 72 3d
       -0.08644042 0.19063658 0.21188639 0.059246525
0002e0 cf 95 d7 bb a7 9e 97 be 9c 03 ba bd 1c 07 67 3d
       -0.006579138 -0.2961323 -0.0908272 0.056403264
0002f0 96 d9 1f bc af 38 ae 3d f8 8d 13 bd 41 66 81 3c
       -0.009756466 0.08506905 -0.036024064 0.015795829
000300 d7 70 9c bd 9c bc 41 3e e8 16 39 3e f1 04 16 3e
       -0.0763871 0.18919605 0.18075144 0.14650322
000310 c9 ee 79 3e 3c 15 f8 bd 9c cf ec 3d 9e de e1 bd
       0.24407496 -0.12113425 0.11563036 -0.11028789
000320 2f 0d ed bd 9e f8 4e 3e e4 e8 97 3d f6 eb 0e be
       -0.1157478 0.20212027 0.07417467 -0.139572
000330 72 c4 84 3e 0e d5 65 bd 34 dc 58 3d 21 bf 18 bd
       0.25931126 -0.056111388 0.052944377 -0.03729165
000340 62 44 a7 3e c1 45 87 3c 99 44 d1 3e 55 ee 20 bd
       0.3266936 0.016512753 0.40872648 -0.03928979
000350 ca d9 6f 3e b5 2b 03 3d cb 1f c8 3e f2 60 0b be
       0.23422924 0.032024104 0.39086756 -0.136112
000360 f2 7e ba bc 91 68 2a be 9d ec c3 bc 0e 1e 6f 3d
       -0.02276561 -0.16641451 -0.023916537 0.05837827
000370 61 30 6c bc 9e 3e 76 3b eb af 48 3e dd a2 0b be
       -0.014415831 0.0037573944 0.19598357 -0.13636346
000380 64 c4 7a bd 8d 04 ee 3d 93 2a 0e 3d 9e cb 5a bd
       -0.06122245 0.11621962 0.03470857 -0.05341684
000390 e7 fc bb 3d ad e5 16 be 0e 75 2a 3e 51 b4 51 3d
       0.09179097 -0.14736052 0.16646215 0.051197354
0003a0 c6 89 bc bd cd 52 ee 3c b9 23 89 bc b6 e7 8c bd
       -0.09205966 0.029092217 -0.016740667 -0.06880133
0003b0 61 0f c9 bd eb 8a 81 3d ed 53 ac 3d c2 94 c3 3d
       -0.098173864 0.063253246 0.08414445 0.09549858
0003c0 e9 1e 74 3e 6c 58 16 be 1a dd 88 bd 1e 31 45 3d
       0.23839916 -0.14682168 -0.06682797 0.048142545
0003d0 55 47 3e be 7b 1c 74 3e 2b 79 01 be 82 62 2b 3e
       -0.18581899 0.2383899 -0.12643878 0.16736796
0003e0 53 90 12 be ed 61 d9 3c 1a db 3a 3e ac cb 31 3e
       -0.14312868 0.026535952 0.18247643 0.17362851
0003f0 12 72 12 3c 9a f7 21 3e 7b 62 04 3d 11 42 db bc
       0.008938329 0.15817109 0.03232048 -0.026764901

fc1.bias f4 [64]
000000 a1 c1 2b 40 1d ef 58 40 3d 27 47 40 19 46 c5 3f
       2.6836932 3.3895943 3.11177 1.5412017
000010 91 75 06 40 d3 92 fd 3f 4c 19 04 40 8b 2a 15 40
       2.1009257 1.9810432 2.064044 2.3307216
000020 ce c5 d4 3f 77 59 49 40 46 cf 23 40 47 fd 0e 40
       1.6622865 3.1460855 2.559526 2.2342088
000030 a3 64 ee 3f c1 63 2b 40 2d 6b 24 40 15 fe e1 3f
       1.8624462 2.6779635 2.5690415 1.7655665
000040 c9 48 f5 bf 11 d8 40 40 35 d0 3b 40 b2 91 38 c0
       -1.9162837 3.0131876 2.934583 -2.8838925
000050 cf a0 05 40 d4 fa dd 3f cd 08 21 40 6c 0f 0f 40
       2.08794 1.7342172 2.5161622 2.2353163
000060 41 eb 28 40 d0 50 5a 40 a0 4c 0f 40 31 b9 d1 3f
       2.6393588 3.4111824 2.2390518 1.6384641
000070 14 3a 13 40 cd d3 2d 40 93 5d 11 40 f5 9b f1 3f
       2.3004198 2.7160523 2.2713363 1.8875719
000080 c1 e4 fd 3f 75 7c 03 40 72 01 3f 40 04 eb 33 40
       1.9835435 2.0544713 2.9844632 2.8112192
000090 00 28 25 40 86 ce dc 3f e8 ca 1b 40 98 a1 ea 3f
       2.5805664 1.7250526 2.4342594 1.8330564
0000a0 84 27 1a 40 e6 a8 0e c0 60 0a 13 40 f9 d8 40 40
       2.4086618 -2.2290587 2.2975082 3.013243
0000b0 82 5f fa 3f 0b f2 db 3f 48 4d f8 3f 7a 9a 14 40
       1.9560397 1.7183241 1.9398584 2.3219285
0000c0 1d 44 d7 3f 41 7b 25 40 b3 37 19 40 2c af 1a 40
       1.6817662 2.5856478 2.3940246 2.4169416
0000d0 80 d9 19 40 e6 3e 43 40 26 29 e5 3f a8 9c 04 40
       2.4039001 3.050714 1.7903183 2.0720615
0000e0 b1 62 24 40 79 0f e9 3f 49 7c f6 3f 21 0a 0e 40
       2.5685236 1.8207847 1.9256679 2.2193682
0000f0 ab b6 07 40 b0 e6 88 3f a7 f5 5c 40 7d 84 12 40
       2.1205242 1.06954 3.4524934 2.2893364

fc2.weight f4 [2, 64]
000000 ed d5 36 3f 2f df e5 3f 5a fa a8 3f dd 62 fc 3e
       0.71420175 1.7958735 1.3201401 0.49294177
000010 02 50 1a 3f 8c 6c c4 3e 72 1d 9c 3d c9 9b 04 3f
       0.6027833 0.38364065 0.07622804 0.5180021
000020 6b cf 33 3e 4b d6 c1 3f 63 e1 17 3f c4 33 36 3f
       0.17559592 1.5143522 0.5932829 0.7117274
000030 4c 6a d2 3e 91 44 12 3f eb bd 2a 3f 3a af 0e 3f
       0.41096723 0.57135874 0.6669604 0.55736125
000040 ba eb 97 bf 36 cc 9d 3f 9e 35 62 3f b2 2e a0 bf
       -1.1868813 1.2327945 0.88363063 -1.251425
000050 67 72 d7 3e d4 d6 f0 3e 60 8c 53 3f 6e a4 05 3f
       0.4207947 0.470389 0.8263607 0.52204025
000060 41 36 24 3f fc 7d e0 3f 9b 9d d3 3e 57 8c 16 bc
       0.64145285 1.7538447 0.4133118 -0.009188733
000070 45 d5 10 3f 6c f4 fc 3e 60 3d da 3e a9 61 fe 3e
       0.56575423 0.4940523 0.4262495 0.49683884
000080 cf 9f f4 3e e9 cb f6 3e 5b 79 7b 3f de 14 69 3f
       0.47778174 0.48202446 0.9823205 0.91047466
000090 55 bd 20 3f 52 0a 26 3f d9 32 13 3f 5d 3f 04 3f
       0.627889 0.648595 0.5749946 0.51659185
0000a0 37 7c b2 3e a3 0f 82 bf 2a 36 15 3f 9e 77 95 3f
       0.34860393 -1.0161022 0.5828577 1.1677129
0000b0 60 57 04 3f 0a ed 00 3f 93 dd 63 3e 76 c9 07 3f
       0.51695824 0.5036169 0.22252493 0.5304178
0000c0 32 7c 4a 3e 19 78 3d 3f ae 51 1c 3f 89 f9 47 3f
       0.19773939 0.7401138 0.61062133 0.78115135
0000d0 48 63 38 3f bf ec 9c 3f f5 0d 90 3e 10 71 05 3f
       0.7202649 1.2259749 0.28135648 0.52125645
0000e0 bb b4 5c 3f 40 5c 20 3f 9c 6f 0f 3f 63 94 05 3f
       0.8621327 0.6264076 0.5602968 0.52179545
0000f0 b7 74 92 3e 61 4b 0e 3f 2b 60 04 40 81 f0 04 3f
       0.2860467 0.5558377 2.0683696 0.5192948
000100 f8 4b 3d 3f 6d df e5 3f 06 d2 b0 3f 8c 98 04 3f
       0.73944044 1.7958809 1.3814094 0.5179527
000110 2a 49 ca 3e 5c 4c 01 3f a8 0f 3a 3f 76 aa 03 3f
       0.39508945 0.5050714 0.7268014 0.5143198
000120 ee 92 05 3f ad 70 b1 3f d1 d3 0f 3f 0a 52 1d 3f
       0.5217732 1.3862511 0.5618258 0.61453307
000130 63 e8 06 3e 3b a0 c4 3e 30 f3 e9 3e 45 8d 58 3e
       0.13174586 0.38403496 0.4569335 0.2114764
000140 22 bf 8e bf 21 ab 89 3f 3a 6e 50 3f b3 5c 87 bf
       -1.1152079 1.0755349 0.8141819 -1.0575165
000150 bd e6 d8 3e 2d 47 2d 3e 13 b7 21 3f 9a 23 3c 3f
       0.4236354 0.16921683 0.63169974 0.73491824
000160 ce b5 22 3f 94 89 f3 3f be c3 1b 3f 2f 15 50 3f
       0.6355866 1.902636 0.60845554 0.81282324
000170 a1 52 12 3f 89 25 11 3f 12 51 27 3f 54 30 c4 3e
       0.5715733 0.566979 0.6535808 0.3831812
000180 ca 28 d9 3e 3b 93 c7 3e e1 de 5b 3f 77 b1 7a 3f
       0.42413932 0.38979515 0.8588696 0.9792704
000190 7e 39 3b 3f 54 1c 94 3e cd ba 2a 3f 39 96 05 3f
       0.731346 0.28927863 0.66691285 0.52182347
0001a0 58 16 42 3f 00 87 7e bf 3b 87 f9 3e b1 1a 9d 3f
       0.75815344 -0.99424744 0.48735985 1.227377
0001b0 45 c2 13 3f af 83 ed 3e 50 b5 1a 3f f1 f9 37 3f
       0.57718307 0.4638953 0.6043291 0.71865755
0001c0 fe cd ec 3e 75 b9 5d 3f b7 ee 09 3f a1 3e 06 3f
       0.4625091 0.8661111 0.53879875 0.52439314
0001d0 a3 9f 03 3f 7f e5 85 3f 48 3f 4f bf e6 4c a8 3e
       0.5141546 1.0460662 -0.80955935 0.3287117
0001e0 6e d4 21 3f 62 cf 4d 3e f2 05 ed 3e 74 58 39 3f
       0.63214767 0.20098642 0.46293598 0.72400594
0001f0 f4 fd de 3e aa de d8 3d 9e 1b f6 3f a3 29 fc 3e
       0.43553126 0.10589345 1.9227178 0.49250516

fc2.bias f4 [2]
000000 a2 a9 a3 3f 6c 86 9e 3f
       1.2786143 1.2384772

mean f4 [43]
000000 6b 33 02 3f 74 26 cc 42 db a8 cb 42 9b 32 7b 3e
       0.5085971 102.0751 101.829796 0.24531023
000010 31 b8 02 3f 70 3a cc 42 56 98 cb 42 16 1a a2 3e
       0.51062304 102.114136 101.79753 0.31660527
000020 7c c7 04 bb 14 e5 1f bd 28 21 04 3d 1d 03 92 bd
       -0.0020260504 -0.039036825 0.032258183 -0.071295
000030 66 34 19 3f 23 01 cf 42 ed cc c8 42 e6 86 46 40
       0.5984558 103.50222 100.400246 3.1019835
000040 f9 0d d7 3e 84 5b c9 42 2c 7b ce 42 0d f5 23 c0
       0.42002848 100.67874 103.24057 -2.5618317
000050 a4 b5 36 3e e1 b3 34 40 13 c8 35 c0 fa 3d b5 40
       0.17842728 2.823479 -2.8403366 5.6638155
000060 35 78 01 3f 8c f7 cc 42 36 a9 cc 42 e6 ab 1c 3e
       0.50574046 102.48349 102.33049 0.15299949
000070 fa c8 02 3f d7 34 cd 42 e6 8e cc 42 43 f1 a5 3e
       0.51087916 102.6032 102.2791 0.3241063
000080 c5 62 a8 bb f6 31 f5 bd 94 76 52 3d a0 36 2f be
       -0.0051387274 -0.1197242 0.051382616 -0.17110682
000090 65 91 ba 42 a6 16 13 40 cb 88 9c bf 7a 3d 04 40
       93.28397 2.2982574 -1.2229246 2.0662522
0000a0 de 7b 8f bf ba 92 6d 3e ce ce d0 bd
       -1.1209676 0.23200503 -0.10195695

std f4 [43]
000000 58 69 31 3e 02 ae 00 41 d0 99 fd 40 78 9f a3 40
       0.17325342 8.042482 7.925026 5.1132164
000010 03 0e 31 3e 4e fa 00 41 28 bd fd 40 c5 b8 a3 40
       0.17290501 8.06111 7.9293404 5.116305
000020 6f 86 76 3e b5 2a d1 40 b9 d0 ca 40 75 08 e4 40
       0.2407472 6.5364633 6.337979 7.1260324
000030 2d ea 55 3e e3 d9 06 41 8e c8 08 41 96 71 c3 40
       0.20890112 8.428195 8.548964 6.1076155
000040 e3 9d 4d 3e ca 33 08 41 cb 64 02 41 d5 0a b6 40
       0.2007976 8.512644 8.149608 5.6888223
000050 d8 82 92 3e f7 14 f1 40 ad 1d ec 40 77 cc 03 41
       0.2861545 7.533809 7.3786225 8.237418
000060 81 a0 4e 3e 9e 93 07 41 3d 7d 07 41 d9 bb bc 40
       0.20178415 8.473539 8.468076 5.8979306
000070 c7 cd 4e 3e b6 94 08 41 b5 bf 07 41 80 b4 bd 40
       0.20195685 8.536306 8.484303 5.9282837
000080 54 7a 92 3e 33 58 f1 40 5b 88 f0 40 4a 57 06 41
       0.28608954 7.5420165 7.516645 8.396311
000090 01 1b 5d 42 98 cc 43 40 08 02 e5 3f fc 57 34 40
       55.27637 3.0593624 1.7891245 2.8178701
0000a0 c5 2b e7 3f cc 2c cf 3f 61 79 dc 3f
       1.8060232 1.6185546 1.7224542
